data/gb10_weights_2048_16nnz_sparse.npz (npz, 864267 bytes, 1 tensors)

data f4 [160000]
0.2475295 0.2510072 -0.21149832 0.25732246 0.22788455 0.31012538 0.23344962 0.24518567
-0.21159908 -0.2089245 0.230589 -0.26313677 -0.23001556 -0.24777739 -0.23307091 0.35013655
-0.41446042 -0.20672148 0.20535772 0.23038957 -0.2682719 -0.21301615 0.21464616 -0.25159138
0.25019222 -0.22903612 0.25514325 -0.24267362 -0.19879293 -0.29721266 0.2527718 0.1809168
0.2163149 0.27332777 0.22984207 0.273361 -0.22633943 -0.20682754 0.19338618 0.3054807
0.13970722 -0.27782276 -0.251343 -0.33011645 0.18008453 0.2917966 0.23296857 0.29243556
0.14407481 -0.20570147 -0.16502938 -0.21476865 0.2350391 -0.5010835 0.31607047 -0.20593649
-0.2710619 -0.16100281 -0.29252347 -0.17870693 0.17464027 -0.2178873 0.31572482 -0.14272979
0.38656688 0.2532571 0.18980558 0.25414997 -0.24726573 -0.2009095 0.20776671 0.28492263
0.18988861 -0.28647077 -0.31384456 -0.21537541 -0.2501107 0.19371228 -0.22052133 -0.21963137
-0.36417463 -0.24940339 -0.28850144 0.32959083 0.18995497 -0.21340632 0.21627058 0.17250639
0.3044655 -0.21821466 -0.18588692 -0.37094867 0.17192951 0.1740763 -0.1721943 -0.23058198
-0.16826823 0.35347307 0.120081365 -0.14693443 0.09842967 -0.1602506 -0.090761356 -0.10531111
0.0907637 -0.17064732 0.12359356 -0.278558 -0.09387579 -0.09090502 -0.20804833 -0.75196254
0.15133242 0.23674008 0.15243703 0.20127806 -0.25254133 -0.19827971 0.19978754 0.15410039
-0.35441154 -0.15065585 -0.60497665 -0.2073172 0.15053646 -0.191639 -0.21441084 -0.16705692
-0.20586373 -0.20577042 0.29088515 0.3078809 0.24076332 0.16248266 -0.18871312 -0.35042697
-0.33298466 0.17683348 -0.21905118 0.20659631 -0.37717992 -0.16451654 0.25283542 -0.16439007
0.15043761 -0.20124084 0.16043083 0.41667977 0.19166881 -0.19379257 0.191622 -0.3983186
0.14806204 0.15566619 0.51325977 -0.14730796 0.22888498 -0.17570013 0.15367334 0.17227145
-0.28188124 -0.16796452 0.17575769 -0.26688093 -0.18258116 -0.24122207 0.18845943 -0.30932856
0.3530256 0.38322014 -0.17405143 0.24422795 0.1883119 0.31011546 -0.16589698 -0.21658465
0.46605074 -0.23928419 -0.20392895 -0.17938201 -0.24116197 0.17297925 0.16012758 0.16003011
-0.28592077 -0.29586256 -0.3022916 -0.15986587 -0.19754687 -0.33495435 0.17320287 0.21213757
0.16629434 -0.12182279 -0.12166442 -0.1898136 -0.12151003 0.1300719 -0.17186388 0.32058927
-0.17575003 -0.1842693 -0.6260265 0.18038392 0.30375394 -0.22381371 0.17042896 0.28632173
0.31599495 -0.19414921 -0.3970096 -0.16916165 -0.21681142 0.37084088 0.2516144 -0.16928075
-0.2439566 -0.16992575 -0.17785327 -0.2727555 0.24149917 -0.2677464 0.2024263 -0.18526135
-0.28441978 0.120613016 0.3985171 0.16532819 0.15922102 -0.26553264 0.1701196 -0.29777774
0.17769213 0.2903369 -0.33682874 -0.21848506 0.30758998 0.093196005 -0.3317594 0.12048529
0.14104372 -0.13846545 -0.19209279 0.1406172 0.13065381 0.21462366 -0.13637657 0.4461496
-0.17950594 0.20602769 0.26568767 -0.13078979 -0.2622484 -0.57941395 -0.19214678 0.14035179
00000000: 6078 7d3e 0484 803e 0493 58be c5bf 833e
00000010: 915a 693e c1c8 9e3e 6b0d 6f3e f411 7b3e
00000020: 6ead 58be 4ef0 55be 861f 6c3e ddb9 86be
00000030: 3389 6bbe 5bb9 7dbe 24aa 6ebe 1945 b33e
00000040: 2834 d4be ccae 53be 4b49 523e 3eeb 6b3e
00000050: ef5a 89be e820 5abe 34cc 5b3e 96d0 80be
00000060: 3219 803e 7288 6abe 23a2 823e 6f7f 78be
00000070: 6090 4bbe 422c 98be 4e6b 813e 4142 393e
00000080: a781 5d3e 9ef1 8b3e b85b 6b3e f9f5 8b3e
00000090: 86c5 67be 99ca 53be 0707 463e f767 9c3e
000000a0: 690f 0f3e c93e 8ebe 08b0 80be 0605 a9be
000000b0: 1468 383e 5d66 953e 508f 6e3e 1dba 953e
000000c0: 5988 133e 68a3 52be 76fd 28be 50ec 5bbe
000000d0: 17ae 703e 0247 00bf fdd3 a13e 04e1 52be
000000e0: a0c8 8abe ecdd 24be a3c5 95be f3fe 36be
000000f0: e6d4 323e d91d 5fbe afa6 a13e c227 12be
00000100: 18ec c53e eaaa 813e 655c 423e f21f 823e
00000110: 3a33 7dbe 38bb 4dbe ccc0 543e 61e1 913e
00000120: 2972 423e 4cac 92be 3cb0 a0be 5f8b 5cbe
00000130: 820e 80be 835c 463e 58d0 61be 0ce7 60be
00000140: 1975 babe 9a63 7fbe 76b6 93be 21c0 a83e
00000150: 8e83 423e 3087 5abe 0976 5d3e 84a5 303e
00000160: e7e2 9b3e aa73 5fbe 2459 3ebe fcec bdbe
00000170: 4a0e 303e 0f41 323e b453 30be af1d 6cbe
00000180: 824e 2cbe 6cfa b43e 38ed f53d fb75 16be
00000190: 7f95 c93d bc18 24be 17e1 b9bd 5aad d7bd
000001a0: 52e2 b93d 2cbe 2ebe 9f1e fd3d 279f 8ebe
000001b0: f341 c0bd 692c babd 9f0a 55be 9e80 40bf
000001c0: e3f6 1a3e fe6b 723e 7418 1c3e d61b 4e3e
000001d0: 194d 81be d609 4bbe 1b95 4c3e 7ecc 1d3e
000001e0: 6e75 b5be 8745 1abe c0df 1abf f64a 54be
000001f0: 3b26 1a3e 043d 44be 848e 5bbe f810 2bbe
00000200: f1cd 52be 7bb5 52be e6ee 943e 91a2 9d3e
00000210: a98a 763e db61 263e 033e 41be 2a6b b3be
00000220: f77c aabe d613 353e f44e 60be fc8d 533e
00000230: ba1d c1be 0677 28be a573 813e df55 28be
00000240: 510c 1a3e 1412 4ebe fb47 243e 0d57 d53e
00000250: d444 443e 8f71 46be 8f38 443e 6af0 cbbe
00000260: 939d 173e f566 1f3e fe64 033f e6d7 16be
00000270: d360 6a3e bcea 33be 8b5c 1d3e ed67 303e
00000280: bd52 90be e4fe 2bbe d3f9 333e 9ea4 88be
00000290: 8ef6 3abe eb02 77be 82fb 403e 5060 9ebe
000002a0: c5bf b43e 6e35 c43e 8a3a 32be e416 7a3e
000002b0: d6d4 403e 74c7 9e3e e6e0 29be 5ec8 5dbe
000002c0: 349e ee3e ea06 75be c0d2 50be ebaf 37be
000002d0: 2af3 76be 7921 313e 7cf8 233e efde 233e
000002e0: 3564 92be 4c7b 97be f7c5 9abe e1b3 23be
000002f0: ba49 4abe 237f abbe 185c 313e 973a 593e
00000300: 1049 2a3e 3a7e f9bd 322b f9bd 7f5e 42be
00000310: 40da f8bd 9131 053e 16fd 2fbe 4724 a43e
00000320: d1f7 33be 17b1 3cbe 4643 20bf 90b6 383e
00000330: a385 9b3e 6c2f 65be ee84 2e3e c398 923e
00000340: 17ca a13e 0dcf 46be d844 cbbe b638 2dbe
00000350: d003 5ebe dbde bd3e 9ad3 803e ef57 2dbe
00000360: c2cf 79be 0401 2ebe 2b1f 36be 9ca6 8bbe
00000370: 8f4b 773e 0e16 89be d748 4f3e 27b5 3dbe
00000380: 789f 91be f503 f73d 6f0a cc3e cb4b 293e
00000390: d60a 233e e5f3 87be d533 2e3e 5376 98be
000003a0: edf4 353e 0aa7 943e d174 acbe 8cba 5fbe
000003b0: 6f7c 9d3e 8cdd be3d 5edc a9be fec0 f63d
000003c0: c46d 103e e3c9 0dbe f9b3 44be f5fd 0f3e
000003d0: 1dca 053e 4ec6 5b3e 4da6 0bbe b86d e43e
000003e0: 68d0 37be ecf8 523e 3708 883e c2ed 05be
000003f0: 6c45 86be 7954 14bf 20c2 44be 61b8 0f3e
